…
ropy') autoencoder.fit(testx, testx, nb_epoch = 5, batch_size =1) However, when I test this piece of code on AWS EC2 g2.2xlarge (my configuration info is on the end of this post), I run into the following Error: Using Theano backend. Using gpu device 0: GRID K520 (CNMeM is enabled with initial size: 95.0% of memory, cuDNN 5005) ____________________________________________________________________________________________________ Layer (type) Output Shape Param # Connected to ==================================================================================================== input_1 (InputLayer) (None, 1, 30, 32) 0 ____________________________________________________________________________________________________ zeropadding2d_1 (ZeroPadding2D) (None, 1, 32, 32) 0 input_1[0][0] ____________________________________________________________________________________________________ convolution2d_1 (Convolution2D) (None, 16, 32, 32) 160 zeropadding2d_1[0][0] ____________________________________________________________________________________________________ maxpooling2d_1 (MaxPooling2D) (None, 16, 16, 16) 0 convolution2d_1[0][0] ____________________________________________________________________________________________________ convolution2d_2 (Convolution2D) (None, 8, 16, 16) 1160 maxpooling2d_1[0][0] ____________________________________________________________________________________________________ maxpooling2d_2 (MaxPooling2D) (None, 8, 8, 8) 0 convolution2d_2[0][0] ____________________________________________________________________________________________________ convolution2d_3 (Convolution2D) (None, 8, 8, 8) 584 maxpooling2d_2[0][0] ____________________________________________________________________________________________________ maxpooling2d_3 (MaxPooling2D) (None, 8, 4, 4) 0 convolution2d_3[0][0] ____________________________________________________________________________________________________ convolution2d_4 (Convolution2D) (None, 8, 4, 4) 584 maxpooling2d_3[0][0] ____________________________________________________________________________________________________ upsampling2d_1 (UpSampling2D) (None, 8, 8, 8) 0 convolution2d_4[0][0] ____________________________________________________________________________________________________ convolution2d_5 (Convolution2D) (None, 8, 8, 8) 584 upsampling2d_1[0][0] ____________________________________________________________________________________________________ upsampling2d_2 (UpSampling2D) (None, 8, 16, 16) 0 convolution2d_5[0][0] ____________________________________________________________________________________________________ convolution2d_6 (Convolution2D) (None, 16, 16, 16) 1168 upsampling2d_2[0][0] ____________________________________________________________________________________________________ upsampling2d_3 (UpSampling2D) (None, 16, 32, 32) 0 convolution2d_6[0][0] ____________________________________________________________________________________________________ cropping2d_1 (Cropping2D) (None, 16, 30, 32) 0 upsampling2d_3[0][0] ____________________________________________________________________________________________________ convolution2d_7 (Convolution2D) (None, 1, 30, 32) 145 cropping2d_1[0][0] ==================================================================================================== Total params: 4,385 Trainable params: 4,385 Non-trainable params: 0 ____________________________________________________________________________________________________ Epoch 1/5 Traceback (most recent call last): File \"testtest.py\", line 32, in &lt;module&gt; autoencoder.fit(
…
